Assets/Resources/TA_Example_1/Agent.onnx (onnx, 920563 bytes, 17 tensors)

action_model._discrete_distribution.branches.0.bias f4 [3]
000000 00 00 00 00 00 00 00 00 00 00 00 00
       0.0 0.0 0.0

action_model._discrete_distribution.branches.0.weight f4 [3, 256]
000000 52 cb f2 b9 83 fa 64 bb 0d 38 d1 ba 71 db 2e bc
       -0.00046309322 -0.0034939356 -0.0015962139 -0.010672436
000010 5d f2 c9 3b df 0b fd ba 63 ff 0b bc d2 86 00 bc
       0.006162925 -0.0019305906 -0.008544776 -0.007844644
000020 68 d1 41 ba a5 8f ed bb 4b e2 b0 3b 45 80 c6 bb
       -0.00073935697 -0.00724979 0.00539807 -0.0060577714
000030 87 e0 22 bc 2b 1a ac 3b 53 22 bb bb b3 23 b5 bb
       -0.009941227 0.005252143 -0.005710879 -0.0055279373
000040 65 66 95 bb 72 c4 ae bb 0e ef 40 b9 8f 8b 10 bc
       -0.0045593255 -0.0053334767 -0.00018399602 -0.008822336
000050 68 06 78 3c 3e 4f 85 3b 17 e0 5b bb ed bd 41 bc
       0.015138246 0.0040682843 -0.0033550316 -0.011825067
000060 26 11 99 ba bc 4c 01 bc cb cd 94 3a 1f 86 11 3c
       -0.0011678084 -0.00789183 0.0011352835 0.008882075
000070 6d 99 df b9 75 30 59 bb 25 19 3c 3a db ff 57 3b
       -0.00042648186 -0.0033140455 0.00071753777 0.0032958898
000080 2a 27 68 3c 7d 03 e4 3b 05 52 12 bb 43 3a 2e 3b
       0.014169494 0.0069584236 -0.002232672 0.002658502
000090 63 27 28 bb ad 1b a5 3b b0 5e 45 bb bc ed 8b 3b
       -0.0025658242 0.0050386996 -0.0030116253 0.0042702835
0000a0 d3 a9 c7 3b f3 fe 67 3b 5f df b2 3b 63 01 6c ba
       0.0060932427 0.0035399764 0.005458757 -0.0009002892
0000b0 20 fb ef 3a 12 eb 26 3a 03 df 87 3b 08 ac 9c bb
       0.0018309094 0.00063674257 0.004146458 -0.00478125
0000c0 7d bf 9f ba cf f3 74 3c 62 1d a7 3a e7 ac 13 3b
       -0.0012187805 0.014950707 0.0012749846 0.0022533478
0000d0 c3 e5 0c 3c dd 3d 74 bb 43 0c c2 3b 5e 2b 21 bc
       0.008599701 -0.0037268319 0.005921872 -0.009837
0000e0 68 c2 fa bb 78 a8 63 bb 43 ba 99 3a fd 17 9d bb
       -0.0076525696 -0.0034737866 0.0011728484 -0.0047941194
0000f0 c2 fc 02 3c 13 0a 39 3b 1c cb 97 3a cb 2f 56 3c
       0.0079948325 0.0028234764 0.0011580917 0.013072918
000100 b1 e4 8a 3c 12 18 23 bc ea 64 c8 3b ee ac 29 3c
       0.016954752 -0.009954469 0.0061155455 0.010356171
000110 fd 76 e1 ba 3f a5 c2 3b e0 41 e6 bb 90 bf ec ba
       -0.0017201599 0.005940109 -0.007026896 -0.0018062461
000120 2b ca d8 bb e3 a4 73 bb 03 b7 3a 3b 2d ec 61 3c
       -0.006615897 -0.0037177138 0.002849043 0.013789219
000130 46 2c c4 3a 3b 38 e5 ba e5 6f 1f 3a 67 04 a2 39
       0.0014966808 -0.0017488071 0.0006082042 0.00030902328
000140 81 42 b4 3b 13 db b6 3a 6b 58 55 3b d3 a1 f5 bb
       0.005501092 0.0013950787 0.0032553922 -0.0074960976
000150 af fd b2 bb 01 14 bd b8 75 cf a2 3b 82 72 37 bc
       -0.0054623703 -9.015948e-05 0.0049685785 -0.011196734
000160 ae 00 89 bb f9 92 16 bc a5 1c 4c 3c 33 07 34 3c
       -0.004180989 -0.009190314 0.012458001 0.010988045
000170 aa fa bc bb 9f cb b2 bb 1f af 88 3b 7a e1 c1 ba
       -0.005767186 -0.0054564024 0.0041712667 -0.0014791929
000180 50 f8 db bb be dc 83 bb 57 42 ee 3b e5 4a 24 bb
       -0.0067129508 -0.0040241173 0.007271092 -0.0025069055
000190 12 3e cc ba 2d 91 7c ba 23 f5 85 bb 0d 2c 90 bb
       -0.0015582463 -0.000963467 -0.0040880605 -0.0043997825
0001a0 34 ef 8f bb 67 43 9b 3a cf 39 9c 3b df d2 a1 bb
       -0.004392529 0.0011845649 0.0047676335 -0.004938468
0001b0 83 f6 c7 3a c7 97 6d 3b ef 06 3e bb 93 91 05 bc
       0.0015255961 0.0036253796 -0.0028995832 -0.008152383
0001c0 1f b1 cf 3b 1e 7a 14 bc 3a 8a d8 bb 25 11 e9 bb
       0.006338253 -0.009062318 -0.0066082748 -0.0071126395
0001d0 2b 4e 9d ba 5b 20 e6 3a 67 3d 44 bc 3a 5a cd 3b
       -0.0012001445 0.001755725 -0.01197753 0.0062668594
0001e0 81 41 b1 3b af 9b 7c 3a 5a 4c b0 3b 75 6c aa bb
       0.00540942 0.0009636236 0.0053801956 -0.0052009174
0001f0 d5 7c da ba ce 0e 85 bb 3d a0 0c 3b 9a 21 7d bc
       -0.0016669283 -0.0040606027 0.0021457814 -0.015449906
000200 1f 1a 1f bc 9f b6 6e bb 4b c2 8d ba d7 ca 1d bc
       -0.009710818 -0.0036424769 -0.001081535 -0.00963088
000210 2b b5 ad 3b 55 be d2 3a b8 18 15 bb 63 9f 24 bc
       0.005301138 0.0016078452 -0.002275033 -0.010047766
000220 95 89 db 3b eb 57 30 3b 75 2d aa bb 62 d5 f1 3a
       0.0066997507 0.0026907872 -0.005193407 0.0018450434
000230 15 46 a9 bb 55 db 49 bc 53 c4 9b bb 97 04 ca 39
       -0.005165825 -0.012320359 -0.0047536283 0.00038531862
000240 38 d4 fe b9 02 33 e0 bb c3 be 06 3b c2 9d 27 3c
       -0.0004860477 -0.006842018 0.002056048 0.0102304835
000250 dd 60 64 bb 10 43 e3 3b 8a be 90 3c d3 e3 64 bb
       -0.0034847774 0.0069354847 0.017668981 -0.0034925833
000260 90 ed f1 3a 82 31 22 bc 67 b5 91 b9 17 b6 6c 3b
       0.001845764 -0.009899499 -0.0002779171 0.0036119276
000270 af 66 31 bc 37 08 52 bb c0 29 9c ba dc 6f ae 3a
       -0.010827704 -0.0032048353 -0.0011914298 0.0013308483
000280 47 6d 8a 3b a1 d7 9e b9 09 fe b6 bb c0 8f e3 ba
       0.0042244527 -0.00030296764 -0.0055844826 -0.0017361566
000290 56 a1 95 3b 33 dd 09 bc 7c 26 87 38 ab 45 08 bc
       0.004566352 -0.008414554 6.44447e-05 -0.008317391
0002a0 52 b1 12 bc f9 f8 0a 3b a2 ef 60 bb 17 5a 4a 3b
       -0.008953409 0.0021205528 -0.003432252 0.0030876452
0002b0 6d 52 23 bb c7 74 42 3b 64 ef 03 3c 44 b5 1e 3b
       -0.0024920956 0.0029671656 0.008052681 0.002421693
0002c0 37 2e 43 bb 4b 47 17 bc a9 60 cc 3b 7b 78 7a 3a
       -0.0029782185 -0.009233306 0.0062371087 0.0009554696
0002d0 b2 86 6e 3c cc 9a 12 ba 2e aa a3 bb 43 cd f1 3b
       0.014558481 -0.00055925245 -0.0049946522 0.0073792054
0002e0 5c 72 c0 ba bd de 2e 3a 6b a0 b7 ba 56 86 29 ba
       -0.0014682519 0.0006670764 -0.00140096 -0.0006466856
0002f0 43 6d 4a 3b 77 ca 40 39 28 cd 23 3c 4b 9f 3c bc
       0.003088788 0.00018385971 0.0099976435 -0.011512588
000300 98 ce e4 bb 7a 88 fc 39 6b 87 ef ba 7f 92 4b 3b
       -0.0069826357 0.00048166869 -0.0018274611 0.003106266
000310 98 9c 91 bb 9d fa 58 3b 2b c0 81 3c 47 fd 20 3b
       -0.0044437163 0.0033108362 0.015838703 0.0024565028
000320 62 bc 87 ba 4e cb 80 ba 6a 98 26 3b 43 d6 67 3c
       -0.0010355825 -0.0009826215 0.0025420436 0.014150205
000330 af 59 e2 3b a3 5f bb bb a5 b6 53 bc 52 db ec 3b
       0.006907664 -0.005718188 -0.012921964 0.0072282935
000340 e7 f4 e0 3b 4c 1e a6 bb e0 35 98 bb ad 82 42 3b
       0.006865132 -0.0050695296 -0.0046450943 0.002967994
000350 4b 34 f1 3b de 74 a1 3a f2 8d 7b bc 97 43 76 ba
       0.00736097 0.0012318154 -0.015353667 -0.0009394227
000360 0b 14 d2 3a 90 16 d2 bb 8e 9d 97 bb 98 28 16 3a
       0.0016027702 -0.006411381 -0.0046269363 0.0005728095
000370 22 3f 9a bb 09 dc 37 38 11 e1 10 bc da 88 28 bc
       -0.004707233 4.3835524e-05 -0.0088427225 -0.010286534
000380 1a 6b 37 3a e2 67 ce bb 02 40 b1 bb 92 2c 95 3b
       0.00069968554 -0.006299005 -0.0054092417 0.0045524323
000390 b0 aa 52 3b db 34 26 bb 6b dc 9f bc 41 4e 80 bb
       0.0032145195 -0.0025361094 -0.019514283 -0.0039155786
0003a0 a1 4c 0b 3b 20 ca 51 bb 0f 44 10 3a b1 f2 3f 3a
       0.0021255391 -0.0032011345 0.00055033056 0.00073222356
0003b0 53 9e 55 ba bf 45 c9 3b e0 1e 6b 3c 3e 37 18 bb
       -0.00081488973 0.0061423476 0.014350623 -0.0023226286
0003c0 17 72 b3 3a f3 69 35 bb 0a ba d1 ba 83 8a 16 3b
       0.0013690618 -0.002768156 -0.0016000879 0.0022970743
0003d0 ff 01 7f ba 65 95 9d 3b 23 3d f7 bb 7e 3b 4c 3b
       -0.00097277755 0.004809069 -0.00754513 0.003116339
0003e0 2d 57 af bb 22 a5 28 ba 60 96 e8 bb db b8 99 bb
       -0.0053509683 -0.0006433298 -0.007098004 -0.004691226
0003f0 7a 20 d7 ba 7b b9 30 3b de 7d 8b 3c 9b 2c c5 3a
       -0.0016412877 0.0026966024 0.017027792 0.0015043201

action_model._discrete_distribution.branches.1.bias f4 [3]
000000 00 00 00 00 00 00 00 00 00 00 00 00
       0.0 0.0 0.0

action_model._discrete_distribution.branches.1.weight f4 [3, 256]
000000 03 5a fb 3a 83 e5 5c bb 33 89 46 bc 8f d2 d3 3b
       0.0019176606 -0.0033706136 -0.012117672 0.0064643095
000010 7a fa 97 3b e3 56 25 bb 33 72 48 bc 89 58 38 bc
       0.0046380134 -0.002522879 -0.012234258 -0.011251577
000020 ed 12 d2 3b ff 83 2c ba f2 b9 d7 ba 02 5d 31 bc
       0.0064109475 -0.0006580948 -0.0016458614 -0.010825397
000030 05 95 c8 3b fa 1b 42 3c 02 41 e5 3a 4d 0a 54 bb
       0.00612128 0.01184749 0.0017490687 -0.0032354773
000040 86 2d 89 bb 8f 64 3a ba f2 21 06 3c 0b f6 13 bb
       -0.004186335 -0.00071103213 0.008186804 -0.0022577073
000050 73 fe 91 bb 25 f3 a2 ba ab 70 96 ba 02 e4 9c 3b
       -0.0044553815 -0.0012432082 -0.001147767 0.004787923
000060 b0 2e 64 bc 55 b0 dd 3a ef 41 e9 3b b7 7f bc 3b
       -0.013927147 0.0016913513 0.0071184556 0.0057525295
000070 fb 26 0d bc f8 86 09 bc f5 e7 9b bb 04 dd 4b ba
       -0.008615251 -0.008393995 -0.004757876 -0.00077767693
000080 9f 1a 9a bb d1 ee b5 ba f2 ab 77 bb 8f ea 75 3b
       -0.0047028805 -0.0013880377 -0.0037791696 0.003752384
000090 5a 55 1e bc e6 4d bc 3b 04 b0 b8 bb 0b 88 a1 3b
       -0.009663904 0.005746591 -0.005636217 0.0049295477
0000a0 08 77 12 3c 50 5c 6b 3b c8 1c 68 39 43 8f 39 3b
       0.008939512 0.0035913177 0.00022135966 0.002831415
0000b0 0d 32 27 bb 70 8a e7 bb 92 d7 e3 bb d2 bd 9c 3a
       -0.002551201 -0.0070660636 -0.006953188 0.0011958426
0000c0 0d a6 f0 3b 8d 4d 04 3b 7b dd b7 3b 25 2d f6 bb
       0.0073440135 0.0020187825 0.0056111193 -0.007512706
0000d0 77 5c 2c 3b 48 a6 75 3b 83 45 4c 3b 96 db 1d 3b
       0.002630023 0.0037483145 0.0031169362 0.0024087182
0000e0 3b a6 34 bb d8 09 fd ba df 66 44 3c 1b 04 4d bc
       -0.0027564901 -0.0019305302 0.011987417 -0.012513186
0000f0 45 6e 95 bb c8 4b 5d 3c b5 05 fe 3a c4 76 8d ba
       -0.0045602643 0.013506837 0.0019380363 -0.0010792841
000100 15 c7 e0 bb cf 00 d3 3b d7 96 a3 3a 0f 20 59 bb
       -0.00685967 0.0064393054 0.0012480867 -0.003313068
000110 40 5d a7 3a 8a 0e 6e bb 0f 37 dc 3b d0 cc 6e bc
       0.001276888 -0.0036324584 0.0067204307 -0.014575198
000120 6c e0 94 3b 3a c9 ce 3a df de 90 3b d3 b0 06 ba
       0.0045433547 0.0015776523 0.0044210996 -0.0005138043
000130 68 fc 0c 3b dc 94 30 bb ea 0f 97 3b ef 93 9d bb
       0.002151275 -0.0026944196 0.0046100514 -0.004808895
000140 23 89 c6 3b 3c d3 44 3b cd f2 62 3b 33 fd 76 bb
       0.0060588284 0.0030033132 0.0034629584 -0.003768754
000150 7f 68 b6 b9 05 54 08 3b b2 68 02 bc 57 f6 eb ba
       -0.000347916 0.0020802033 -0.007959532 -0.0018002492
000160 0f 88 54 3c 1d 92 6d ba 77 78 ed ba d7 cd 08 3c
       0.012971892 -0.0009062605 -0.0018117566 0.008349857
000170 a6 0a 19 39 5f a6 07 bb 63 b5 5a 3b 40 21 db ba
       0.00014595184 -0.002069853 0.0033372275 -0.0016718283
000180 e7 b4 d2 ba ca 64 d7 3b 12 63 62 bc 64 3d 14 bc
       -0.0016075642 0.0065732943 -0.0138175655 -0.00904784
000190 41 8f 23 3c 72 3f c4 3a 1b 7d 2a 3c ff 9a 21 bb
       0.009982885 0.0014972521 0.010405804 -0.0024659035
0001a0 44 d8 9b b9 d0 fc cc 3a 03 d0 86 bb 4f ec c3 3a
       -0.00029725034 0.0015639309 -0.0041141524 0.0014947745
0001b0 56 72 94 3b 6d 25 d5 3b 39 6c 1f bc 2d e3 0a 3b
       0.0045302315 0.0065047056 -0.009730392 0.0021192536
0001c0 0c 36 ab ba 8f 37 f9 3a b1 36 ba bb 47 75 0a bb
       -0.0013062372 0.001901375 -0.0056827893 -0.0021127032
0001d0 01 61 39 3c c7 bb 0b bc 62 de 89 3b 7b b3 35 3a
       0.011314631 -0.008528656 0.0042074183 0.0006931347
0001e0 ea 9f db 3b 22 32 02 3c bf 41 17 bc 05 be d9 3a
       0.006702413 0.007946523 -0.009231984 0.0016612416
0001f0 36 48 48 bc aa a4 23 3b 5a 61 7a bb f8 1c 9d 39
       -0.012224248 0.0024969974 -0.0038204999 0.00029966957
000200 2b 07 41 3b 23 da 95 bb 21 59 15 3b 3d 57 39 3c
       0.0029453735 -0.004573123 0.002278872 0.011312303
000210 c8 b1 85 bb f5 cd 5d 3a c7 01 7c b9 75 27 03 3b
       -0.004080031 0.0008461171 -0.00024033255 0.0020012532
000220 17 a6 94 3c 53 f3 5a 3c 58 75 0f bc 4f d7 e2 39
       0.018145604 0.013363677 -0.008756004 0.00043266497
000230 76 5d c0 3a b2 64 e9 bb 37 06 61 3b 61 67 94 3b
       0.0014676291 -0.0071225995 0.003433598 0.0045289253
000240 7a 1a c9 3a 0a a4 68 bb 7a c2 c2 3a c3 65 f3 3a
       0.0015342974 -0.0035498166 0.0014858984 0.0018569756
000250 1f cf 99 bb 87 3b 01 bc 1a 7f 16 bc aa 8f 2b bc
       -0.00469388 -0.007887728 -0.009185577 -0.010471264
000260 8b 5a 2a 3b 8f b0 a7 bb db 41 85 3a 13 1b 47 3b
       0.002599391 -0.005117483 0.0010166721 0.0030381128
000270 ff 59 0c bb 98 c7 8f bb 07 c9 55 bb b2 46 c3 3b
       -0.0021415947 -0.004387807 -0.0032621042 0.0059593553
000280 ca 79 d3 bb 19 f7 41 3c 1f 8b 0b 3c f8 24 1a bb
       -0.0064537274 0.011838698 0.008517056 -0.002352057
000290 76 8a ab 3b ae 6e 29 3c b3 e5 ea 3b 31 c1 8e 3b
       0.0052350117 0.0103413295 0.0071684956 0.0043565263
0002a0 a0 4a e3 3b c1 c5 b7 bb 77 17 3c bb 5e d5 bf ba
       0.006936386 -0.005608291 -0.002870051 -0.0014635732
0002b0 cf e9 57 bb 9f 8e 16 bc 22 c3 1e bb d3 7d 4f bc
       -0.0032945757 -0.009189277 -0.0024225195 -0.012664276
0002c0 0c cc a3 3b 11 51 25 bc c4 d1 c5 3b 51 ba 87 3b
       0.0049986895 -0.0100901285 0.006036969 0.0041420837
0002d0 0f 63 1c 3b 0f 26 32 3b 9f ff 39 3b 67 e7 74 3b
       0.0023862754 0.002718333 0.0028381122 0.0037369372
0002e0 8d 3d e8 ba 4f ae 19 3a 21 9c c2 3b 50 b5 9e 3b
       -0.0017718539 0.0005862461 0.005939022 0.0048433915
0002f0 03 80 70 bb 6a 9a 94 3b 65 f3 ce 3b b9 3e 86 ba
       -0.0036697395 0.004535009 0.006315636 -0.0010242081
000300 23 be fa bb 0d 62 b0 bb 8a c3 03 3c 1a bf a9 b8
       -0.0076520606 -0.0053827823 0.008042226 -8.0941434e-05
000310 95 81 6d 3b 25 10 a5 3b 0a 8b ce 3b e5 b2 e0 ba
       0.0036240567 0.005037325 0.006303196 -0.0017143158
000320 6a b9 5d 39 48 99 67 3b 0a 0b 71 3c ed eb ad b9
       0.00021145275 0.0035339165 0.014712105 -0.0003317291
000330 4f b4 2b 3b 8f 24 cc 3b e4 ad 49 bb f2 36 11 ba
       0.0026200002 0.006229944 -0.0030773813 -0.00055394985
000340 36 6e 10 3c 93 e2 6d 3b 45 69 6d 3b e3 b4 0d bc
       0.008815339 0.003629838 0.0036226076 -0.008649084
000350 aa 78 88 3a f8 1d e0 3b 10 f7 b9 3b 71 80 17 3b
       0.0010411937 0.00683951 0.005675204 0.0023117329
000360 d1 3b 1e bc 6c 87 80 bb 3a cc b2 3b e4 51 04 bc
       -0.009657816 -0.0039223935 0.0054564746 -0.008076165
000370 37 1e ee 3a 9b 26 7b 3a cb 50 29 3c c9 e7 bf 3b
       0.0018166964 0.0009580643 0.010334204 0.0058564884
000380 be 67 3e 3b 35 bc e1 3a 76 fa 2b 3b af 51 06 3c
       0.0029053534 0.0017222228 0.0026241816 0.008198186
000390 fe 9f 30 bb 75 38 28 3c e8 97 42 bb b0 c6 03 bb
       -0.0026950832 0.010267367 -0.0029692594 -0.002010744
0003a0 1b f2 e0 3a cb 71 c9 bb 91 3c 32 bc ef c3 e2 3b
       0.0017161997 -0.0061475984 -0.010878698 0.0069203298
0003b0 8a 3e 4d 3b 5f aa a2 bb 87 20 1c bc 42 1d 30 ba
       0.0031317794 -0.0049641575 -0.0095292395 -0.0006718227
0003c0 a1 3c 48 3b df 8b cd 3a bb 08 f2 bb 6f 47 1b 3c
       0.0030553716 0.0015681944 -0.0073862947 0.00947748
0003d0 74 32 ad 3b e8 6a cc 3b d2 ba e7 bb e8 ba ea 3b
       0.0052855555 0.00623833 -0.0070718313 0.0071633942
0003e0 7b 02 25 bb f3 78 38 3b e8 f1 ed 3a 31 04 0e 3b
       -0.002517848 0.0028148263 0.0018153759 0.0021669979
0003f0 37 12 4c bb e9 5f 8c 3b 77 53 27 bc f3 55 4a 3b
       -0.0031138787 0.0042838943 -0.010212771 0.0030873984

action_model._discrete_distribution.branches.2.bias f4 [2]
000000 00 00 00 00 00 00 00 00
       0.0 0.0

action_model._discrete_distribution.branches.2.weight f4 [2, 256]
000000 e8 9b 73 bb f6 d9 48 bb cf fa 21 bc d4 7c 3f bb
       -0.0037171785 -0.0030647493 -0.009886458 -0.002921869
000010 ff b8 72 ba a5 09 f1 ba a8 49 14 3b 7d 7b 63 39
       -0.0009259134 -0.0018389715 0.002262691 0.0002169441
000020 38 aa d0 bb 63 0a 54 3b ad 3b 69 3b fb 77 c8 3b
       -0.006367948 0.0032354824 0.0035588548 0.0061178184
000030 f4 96 33 bc db 02 02 bb 47 39 81 3b 97 54 6a 3b
       -0.010961283 -0.0019838128 0.0039435956 0.0035755986
000040 f8 7d c9 3b 61 20 08 bc 7d 20 32 3c 72 a1 d4 3b
       0.00614905 -0.008308501 0.010872004 0.0064889723
000050 e1 53 3c ba 98 6f 1c 3b fb 61 0c 3b e9 6f 1d 3b
       -0.000718413 0.0023870226 0.0021420706 0.0024023002
000060 a2 72 1c bc 37 1c 5d b9 12 ce c3 ba 6f e5 47 bb
       -0.009548815 -0.00021086713 -0.0014938733 -0.0030501743
000070 a7 d9 7a bb 1e 40 98 bb ac 0a bd ba b0 53 2f bb
       -0.0038276704 -0.0046463152 -0.0014422736 -0.0026752762
000080 97 90 6d 39 8d 49 b0 3b 37 dc 6a 3c dd d2 e7 bb
       0.00022655945 0.0053798617 0.01433473 -0.0070746974
000090 76 a8 2d bb 28 83 63 bc 17 05 f9 3b 4f 24 a1 3b
       -0.0026498116 -0.013886251 0.0075994837 0.0049176584
0000a0 5b 0d 3b 3c fd 32 48 bc c3 bb ea bb ce a9 08 bc
       0.011416758 -0.012219188 -0.007163496 -0.008341266
0000b0 58 ac 22 bc 8a 29 a0 ba 2d 4a 0e 3b 94 b8 c2 3b
       -0.009928785 -0.0012219411 0.0021711693 0.0059424136
0000c0 c8 2e dc bb 6b 7d 2c bc 72 db e5 bb a8 d0 25 3c
       -0.006719444 -0.010527949 -0.0070146853 0.010120548
0000d0 e2 81 fc 3b db a2 37 3a a0 fa ea ba 40 e8 75 3a
       0.007705913 0.00070051634 -0.0017927475 0.0009380616
0000e0 97 97 44 38 4f b1 da 3b 87 cb 82 3b f0 6b 1c bb
       4.687122e-05 0.006673969 0.0039915475 -0.0023868047
0000f0 9b 44 d6 3b 55 25 83 3c bb af 8e 3b 1a 5e e7 bb
       0.00653894 0.016009012 0.004354445 -0.0070607783
000100 9d d8 ad bb 57 36 2b bc b3 80 d3 3b 53 fd aa ba
       -0.0053053633 -0.010449967 0.006454551 -0.0013045467
000110 bc 69 1f 3c 4d 10 e4 3b a7 43 8f 3b 30 70 03 bc
       0.009729799 0.006959951 0.0043720785 -0.008022353
000120 2d af a0 3b ff 12 a5 3a 4b 26 28 3c b1 7d 28 bc
       0.004903695 0.0012594162 0.010263036 -0.010283873
000130 9b 1f 85 bb 93 5a d3 bb 9a 4f 54 bb 05 01 c4 3a
       -0.0040626056 -0.0064500063 -0.003239608 0.0014953917
000140 68 f0 8a bb 23 4a 20 bc 0d 80 01 bb 02 50 30 3c
       -0.0042400844 -0.009783301 -0.0019760162 0.010761263
000150 77 61 99 3c bb 2a 18 bb 3a 4e d4 bb 38 63 f5 bb
       0.018723233 -0.0023218829 -0.006479052 -0.0074886344
000160 37 7e f8 3b dc d0 b1 bb ca dd 21 3b 05 78 b8 bb
       0.0075834054 -0.0054265093 0.0024698847 -0.005629542
000170 e5 55 24 3c 9f 4e 34 bb 1b 8c 78 bb 62 92 ed bb
       0.0100302445 -0.0027512682 -0.0037925306 -0.007250116
000180 90 31 74 3b cb 3f cf bb f1 fd 0a bc af 7d 7d bb
       0.0037260987 -0.0063247434 -0.008483396 -0.003867965
000190 71 4a 25 bb 1a 83 eb ba 19 39 aa 3b 3e 34 b7 3b
       -0.0025221372 -0.0017968148 0.005194795 0.0055909446
0001a0 0e fe 20 bb 49 3f 4c 3b f3 ef 3b 3b 30 b6 f1 39
       -0.002456549 0.003116565 0.0028676956 0.00046102842
0001b0 e5 62 77 bb 9e d2 b3 bb 28 62 71 3b fb da 1c 3b
       -0.0037748155 -0.005487754 0.0036832187 0.0023934233
0001c0 a0 2f 54 ba 44 f2 48 bb a7 72 05 bc f4 81 0a 3c
       -0.0008094255 -0.003066198 -0.008145011 0.008453835
0001d0 e1 ff 0c 3b 87 3a 96 b9 68 13 f3 bb 51 9b a4 3b
       0.002151482 -0.00028653836 -0.007418085 0.005023398
0001e0 03 64 e9 3b 29 7f 0c bc c3 c2 37 bb c7 2f 03 bb
       0.007122518 -0.008575239 -0.002803967 -0.0020017491
0001f0 ea 3e bf ba 9f 20 8d 3b 5d 2a 72 bb c3 88 89 bb
       -0.0014590893 0.0043068673 -0.003695152 -0.0041972115
000200 2b 17 0c 3c e0 57 6e bb fd be 51 bc 0a 7f 56 3b
       0.008550446 -0.0036368296 -0.012801883 0.003272953
000210 e1 93 ad bb 7e 14 92 bb 1b 47 8f 3b df 08 08 bc
       -0.0052971696 -0.0044580093 0.00437249 -0.008302896
000220 58 84 07 3c 58 ec 1a bb 62 1d 64 bb b1 3f a8 3a
       0.008271299 -0.0023639407 -0.0034807553 0.0012836364
000230 8f 87 b3 3b 57 2e b3 3b 29 4a 06 3c 12 71 79 3b
       0.0054788063 0.0054681706 0.008196392 0.003806178
000240 ac 7a af bb d2 d4 1e 3b 3d 67 24 bc 3f 81 87 3a
       -0.0053552 0.0024235738 -0.01003438 0.0010338201
000250 f0 2d 1c 3b 6c 0c ad bb 97 74 c1 bb 43 f0 86 bc
       0.0023831092 -0.005281022 -0.005903791 -0.016471988
000260 df b9 1c bc 70 04 64 3b 91 4a 88 3b e3 d0 7f bb
       -0.0095657995 0.0034792684 0.0041592796 -0.0039034418
000270 f1 48 43 3c 22 3d d2 bb 57 76 4a 3c ed 47 6f bb
       0.011919246 -0.006415979 0.012357316 -0.0036511377
000280 9a e3 9e bb 2c 37 03 bc d9 d1 49 3b 3b 6d a8 3b
       -0.0048489096 -0.0080087595 0.0030795245 0.0051399744
000290 17 d1 db bb 63 c5 ca 3b 04 7d 2c bc 0f d9 1a bb
       -0.006708275 0.006188081 -0.010527853 -0.0023627912
0002a0 fa 33 56 3b 56 b1 8b bb 0f 92 0d 3c 34 96 23 3b
       0.003268479 -0.0042630835 0.00864078 0.0024961354
0002b0 b3 6f d1 39 3e 0f 81 3a 09 f8 86 3b 03 2f 9a 39
       0.0003994681 0.0009846461 0.0041189236 0.00029408195
0002c0 65 07 59 bb 07 eb 08 bc 22 fc a4 ba 18 d0 1a 3b
       -0.003311598 -0.008356816 -0.0012587348 0.0023622569
0002d0 1f b8 ae 3b 87 a8 12 bc 0a c7 ea ba 3c 8a 26 b9
       0.0053320075 -0.008951313 -0.0017912101 -0.0001588249
0002e0 15 59 16 3c 87 ed d7 3b f5 8e 10 3c 83 28 1b 3a
       0.009176512 0.0065895948 0.008823146 0.00059188175
0002f0 a2 a6 90 b9 b0 db 89 bb 53 d6 43 3b d7 d7 72 bb
       -0.0002758997 -0.004207097 0.0029882386 -0.003705492
000300 03 f8 b4 ba e9 2f 2b 3c 0a 63 6f bc cb bc b4 bb
       -0.0013806823 0.010448434 -0.014611015 -0.00551567
000310 27 0a a1 3a e3 32 ff 3b ae e1 9f bb 5f ba 30 3c
       0.0012286351 0.0077880486 -0.004879198 0.010786622
000320 c0 84 7d 3b 83 86 0d bb 85 e3 a7 3b a5 ce 1b 3b
       0.0038683861 -0.0021595068 0.005123558 0.0023774293
000330 23 79 84 39 2e bc b9 bb 7a 9f 77 bb b7 50 0b 3b
       0.00025267256 -0.0056681847 -0.0037784264 0.0021257827
000340 25 90 dc 3b ba fa 0b bb 7f e8 8c 3b 26 62 07 3b
       0.0067310506 -0.0021359161 0.0043001766 0.0020657866
000350 49 57 49 3c 6f 0a dc 3b 01 5b 00 bb de cb c4 3a
       0.012288877 0.006715111 -0.0019585493 0.001501437
000360 7a 5d e5 bb 8d 48 0a 3c ad dc 71 bc 22 f3 4c 3b
       -0.0069996687 0.008440149 -0.014762086 0.0031272848
000370 01 d3 07 3c a2 27 87 ba b9 5f 84 bb 2d 38 d8 bb
       0.008290053 -0.0010311494 -0.0040397313 -0.0065984935
000380 35 ba 77 bb ea 86 70 bb 13 4a 09 bc f0 8b cd 38
       -0.0037800197 -0.0036701509 -0.008379477 9.801227e-05
000390 9a 78 2f bb 6f 09 1a bb 8e f6 24 3c c7 14 07 ba
       -0.0026774765 -0.0023504158 0.010068549 -0.00051529374
0003a0 d0 81 af bb f7 1a a4 ba 8b 9a 3d 3b fb 9c 29 bb
       -0.005356051 -0.0012520243 0.0028931226 -0.0025880921
0003b0 63 7a 6a ba 9e 20 80 3a 63 ca 1d bc 7b d1 fc bb
       -0.00089446286 0.0009775346 -0.009630772 -0.0077154017
0003c0 97 f2 dc ba 58 6f e0 3b 34 b5 1a bc e5 f5 ce 3b
       -0.0016856965 0.0068492107 -0.009442616 0.006315934
0003d0 9b e5 c7 ba f2 7e 2a bc 67 b7 0d bc eb 9e 6c bb
       -0.0015250923 -0.010406243 -0.008649684 -0.0036105465
0003e0 3b ed 0b 3c d9 14 8b 3b 4e dd 18 3b aa ae 84 bc
       0.008540447 0.0042444286 0.0023325267 -0.016196568
0003f0 35 a6 c3 3a 7d a4 6a bc 60 81 b9 38 22 48 8c 3b
       0.0014926853 -0.014321444 8.8455854e-05 0.00428106

action_model._discrete_distribution.branches.3.bias f4 [2]
000000 00 00 00 00 00 00 00 00
       0.0 0.0

action_model._discrete_distribution.branches.3.weight f4 [2, 256]
000000 97 9a a9 3b 5f fe 5e 3b df f8 1e 3c b3 8e 7e b9
       0.0051758992 0.0034026129 0.00970289 -0.00024276487
000010 82 05 ed bb 50 53 6b b8 2d 99 6a 3b 2e d8 0d 3c
       -0.0072333226 -5.6105957e-05 0.0035796866 0.008657498
000020 43 03 41 b9 17 f4 ce 3b 50 bb 0b 3b ca 25 d8 bb
       -0.0001840713 0.006315719 0.0021321364 -0.0065963017
000030 59 6d 04 3c 66 5b 0f bb c8 ce 04 bb 1e 15 c4 bb
       0.008082711 -0.0021874546 -0.0020264853 -0.0059839627
000040 f9 20 9d bb fa 67 4f bb 4a 85 9b bb 03 b4 2a 3a
       -0.0047951904 -0.0031647668 -0.004746114 0.0006511809
000050 fd bb 92 b9 48 c5 79 3b df 8c 8d bb f8 d3 e2 3b
       -0.00027987352 0.0038111974 -0.0043197717 0.0069222413
000060 b3 39 74 3b 6a 71 2d 3b d2 bb 6e 39 7c 48 2e 3b
       0.0037265837 0.0026465305 0.00022767417 0.0026593497
000070 12 aa 34 3c 8a d0 6c 3a 2f ca e1 bb 81 28 0e bc
       0.011026876 0.000903376 -0.0068905572 -0.008676649
000080 08 12 95 3a 3f 85 e7 3b 08 b3 24 3a b6 3f 47 3a
       0.0011373172 0.0070654447 0.0006282781 0.0007600741
000090 e9 fb 24 3b fd 1f 4d bb 8f 8b 4b bc 1b b7 9b bb
       0.0025174564 -0.0031299584 -0.01242341 -0.0047520525
0000a0 92 76 f2 ba ef dc e6 3b ba 5d 8f 3b 48 a5 48 bb
       -0.0018498471 0.0070453803 0.0043751867 -0.0030616093
0000b0 a1 b1 46 bc e7 73 7a bb 9d 54 20 ba e8 f8 b8 bb
       -0.012127311 -0.0038216056 -0.0006116124 -0.0056449063
0000c0 fb 47 f8 3b 03 a4 91 3b 93 52 0e 3a dd 40 b7 bb
       0.00757694 0.0044446005 0.00054291746 -0.005592449
0000d0 47 2a e4 3b b5 dd 0a 3c 6d f8 9f bc 98 06 63 3b
       0.0069630477 0.008475711 -0.019527638 0.0034641381
0000e0 1c 2e 0e 3c 7b 43 30 3c 1b 93 d3 3b a2 e1 56 bc
       0.0086779855 0.010758276 0.0064567453 -0.0131153185
0000f0 09 b1 29 bb 5f 51 54 3b 1a 4e 20 3b 8a 40 e3 3b
       -0.0025892875 0.0032397134 0.0024460615 0.006935184
000100 df b1 56 3a b1 25 25 bc d8 3a 18 3c 88 84 de bb
       0.0008189957 -0.010079787 0.009291373 -0.0067907013
000110 0a 9b 95 3b 7b 08 6a 3b 67 fa 9b 3b 00 40 fd bb
       0.0045656012 0.003571062 0.004760075 -0.0077285767
000120 15 70 f0 3b 4a 90 ee 3b 93 47 88 bb 67 cf b6 bb
       0.00733758 0.007280384 -0.004158923 -0.0055789235
000130 d6 35 11 3c 89 a6 23 bb de 8e 16 bc ba 82 60 3b
       0.008862933 -0.002497109 -0.009189336 0.0034257607
000140 70 36 39 bb 57 01 5b 3b 75 e0 be bb 97 ec 0e bc
       -0.0028261207 0.0033417547 -0.005825097 -0.0087234
000150 4b a6 8b 3b f1 8b c9 ba 52 3a 46 3b d3 a3 70 3b
       0.004261767 -0.0015376789 0.0030247164 0.003671874
000160 3b 46 e7 bb 1f cb 5c 3c 93 52 84 3b 1f 32 cd 3b
       -0.0070579327 0.013476162 0.004038164 0.0062620784
000170 51 ff 9d bb 97 38 2d 3b 72 60 11 3b 10 ed ea 3b
       -0.004821696 0.0026431435 0.002218273 0.0071693733
000180 ef f3 10 bc 32 85 06 3c 8e b7 2f ba 07 08 13 ba
       -0.008847221 0.008210467 -0.0006703072 -0.0005608801
000190 7f ac fe 3a a2 7c 27 bb 69 80 4a 3c 3a 15 94 bb
       0.001943007 -0.0025556465 0.012359717 -0.004519132
0001a0 68 d6 ef ba f7 3b b1 bb 28 19 ef 3a 53 9e ef 3a
       -0.0018298151 -0.0054087597 0.001824175 0.0018281437
0001b0 e8 1d f0 ba 73 a4 f7 ba 3a f9 97 3b e1 7d c1 b8
       -0.001831946 -0.0018893614 0.0046378644 -9.226404e-05
0001c0 28 07 4b 3b 7a 11 a2 3a d7 b4 23 bb 0a bd e3 bb
       0.0030979607 0.0012364828 -0.0024979615 -0.0069500254
0001d0 46 35 1e bc 0f b8 53 bb 6c 5a 23 3c 9a 8a 1b 3c
       -0.009656256 -0.0032305752 0.009970289 0.009493494
0001e0 19 89 93 bc 79 21 13 bc 44 75 a1 3a 90 0a 73 3a
       -0.01800971 -0.0089801485 0.0012318273 0.0009271288
0001f0 6a dc 10 bc 47 0f c2 ba 78 95 00 3b bd 9a 13 3a
       -0.008841613 -0.0014805578 0.001962034 0.0005630663
000200 ef 4b 0d 3c bd 21 2d 3b 8c 80 46 bb 2a 0b f0 ba
       0.008624061 0.0026417815 -0.0030289022 -0.0018313874
000210 ef 4b 74 3a bb 51 dc 3b 15 8f f2 3b ff 3f f9 3b
       0.00093191763 0.00672361 0.0074023106 0.007606506
000220 31 53 19 bc 9a ff 11 39 7a ae d6 3b 73 42 46 bb
       -0.009358213 0.00013923497 0.006551561 -0.003025201
000230 13 19 b6 ba d3 71 59 bb 0c 05 9b bb 58 ce d8 3b
       -0.0013892971 -0.0033179417 -0.0047308262 0.006616395
000240 d3 5f 3b 3b 2d 2c 47 3a 1a e5 23 bb 1d e0 55 b9
       0.0028591051 0.000759783 -0.0025008381 -0.00020396752
000250 d7 f4 ab ba 8f 96 80 3b 4a a2 ec b8 61 37 06 bc
       -0.0013119233 0.003924198 -0.000112835856 -0.008191914
000260 ef c9 90 bb c7 8c 67 bc 9d 9f f0 b9 63 81 34 ba
       -0.0044186036 -0.014132685 -0.00045895288 -0.0006885735
000270 d5 12 3d 3a 05 c9 26 bc 58 26 29 bb 4a 81 d5 3b
       0.0007212584 -0.010179763 -0.0025810208 0.0065156566
000280 93 56 9b bb 30 04 9a 3b 04 fd 01 ba 12 dd f1 bb
       -0.004740545 0.004700206 -0.0004958662 -0.00738109
000290 12 b9 18 bc 4b 4e 01 3c cb 9f fd 3b cd 4e 2d 3c
       -0.009321468 0.007892202 0.007739996 0.01057787
0002a0 15 46 4b bb 87 5d 02 bc 9f 44 f5 b9 34 c2 26 bb
       -0.0031017114 -0.007956869 -0.00046781168 -0.0025445344
0002b0 67 5f 64 3c df 73 47 bb 4f f7 e6 3a e2 8e 7f b8
       0.013938761 -0.0030434055 0.0017621311 -6.0929808e-05
0002c0 63 61 f7 ba 84 fd be 39 45 d2 db 3b b3 55 94 bb
       -0.0018873628 0.00036428508 0.0067084157 -0.0045268177
0002d0 cb a5 ef ba 68 15 c2 3b 3f c2 76 bb 88 c9 b8 bb
       -0.0018283663 0.005922962 -0.00376524 -0.005639259
0002e0 40 a5 90 bc f6 94 9a bb cd 61 fc 3b cb 93 43 ba
       -0.017656922 -0.0047174646 0.0077020884 -0.00074606825
0002f0 96 a2 83 3b ed c1 81 bb dd 59 56 bb 28 c0 74 3b
       0.0040171845 -0.0039598853 -0.0032707371 0.003734598
000300 c4 eb bb 38 37 db 80 bc 3b 56 aa bb ed b0 02 bb
       8.9607696e-05 -0.01572953 -0.0051982678 -0.0019941882
000310 5b 60 28 bc 83 d9 6b 39 cf 96 8c ba 3d 4e 5f 3b
       -0.010276879 0.00022492376 -0.0010726097 0.0034073733
000320 a7 57 f7 bb db 70 c2 ba 8f 8e df bb 07 03 6a ba
       -0.007548291 -0.0014834659 -0.006822414 -0.0008926843
000330 0a dd 75 3b 58 22 7f 3a 9f b9 a8 bc c5 2a 39 3b
       0.0037515783 0.00097325956 -0.020596324 0.0028254252
000340 fb af 9f ba 45 18 d3 3b d4 10 bf ba 3b 6b 94 bb
       -0.0012183184 0.006442102 -0.0014577159 -0.0045293844
000350 b7 5b e3 3b dd c3 41 bb 7f ef b2 3b c2 2b b7 3c
       0.0069384235 -0.0029566207 0.005460679 0.022359733
000360 77 bf 0a bc 82 95 34 3b 13 9a a5 bb 55 6a ee 3a
       -0.0084685 0.0027554934 -0.0050537675 0.0018189648
000370 6e 28 10 ba 3f 73 99 3b 0f d9 e1 ba 85 ba b2 3b
       -0.00054991886 0.004682928 -0.0017230826 0.0054543638
000380 c5 f2 4e 3b 2d 50 57 3c 38 85 d8 3a 80 3a 0d bc
       0.0031577807 0.013141674 0.0016519194 -0.0086199045
000390 60 24 ff 3b 3f 08 5f ba c2 53 06 3b c4 7f 39 3c
       0.0077863187 -0.00085080037 0.00204967 0.011321966
0003a0 87 00 aa 3b 0a 3c 47 3b c3 7d c7 39 10 2c 49 bb
       0.005188051 0.0030400776 0.00038049938 -0.003069643
0003b0 7c 92 17 3b a4 15 25 3c ec 3b 9f 38 29 69 46 3b
       0.0023128083 0.01007596 7.592872e-05 0.0030275083
0003c0 7f b6 1a bb 0f bc 4a 3c 13 f9 78 bc 55 b5 84 3a
       -0.0023607311 0.012373938 -0.015196103 0.0010124842
0003d0 f5 a5 d2 b9 e6 a1 b9 3b 12 90 06 3c 7e f3 37 ba
       -0.0004017797 0.0056650518 0.00821306 -0.0007017179
0003e0 2d 0c 04 3b b7 32 87 bb 36 eb 0b 3c 28 66 3c bc
       0.002014886 -0.0041259187 0.008539965 -0.011498965
0003f0 86 45 47 bb 8f 6e 6e 3b b5 6c f3 bb 60 e6 15 3c
       -0.003040643 0.0036381816 -0.0074287304 0.009149164

action_model._discrete_distribution.branches.4.bias f4 [2]
000000 00 00 00 00 00 00 00 00
       0.0 0.0

action_model._discrete_distribution.branches.4.weight f4 [2, 256]
000000 d9 49 bb 3a b5 00 f8 b9 64 9a 03 3b 6d 09 55 bc
       0.0014288976 -0.00047302773 0.0020081038 -0.013002736
000010 37 a1 64 3b 6a 78 fa ba 52 f1 75 bb bf 9e 45 3b
       0.003488613 -0.0019109373 -0.0037527871 0.0030154434
000020 23 e0 f8 3a 43 0f 95 bb 34 58 1e bc af d2 0b 3c
       0.0018987696 -0.0045489385 -0.009664584 0.008534118
000030 f5 f4 1f 3c af 49 52 3b 4f e0 21 38 58 4b 1d b9
       0.009762992 0.0032087376 3.8594295e-05 -0.00015000755
000040 1e 90 1d bc a7 0a 07 3c 6b bb 12 3c bb b3 07 bc
       -0.00961688 0.008242286 0.008955817 -0.008282597
000050 17 97 c5 bb 12 8e f5 3b 41 3b b9 bb 17 4a b6 3b
       -0.006029974 0.0074937427 -0.0056528156 0.0055630314
000060 54 1c 02 bb 22 a4 8d 3a 1d 1f 2f bb 8b d7 a1 ba
       -0.001985331 0.0010806362 -0.0026721426 -0.0012347562
000070 f5 e3 05 bb e9 b8 c0 bb 57 c1 ca bb d3 d1 9d 38
       -0.0020430062 -0.005881418 -0.0061875987 7.525426e-05
000080 4e cc 82 3b ce a0 17 3c 77 40 ee 3a 8d 82 e6 3b
       0.00399164 0.009254647 0.0018177171 0.007034606
000090 15 9f 76 bb ca 47 4e bb 6f af 03 b8 f3 b3 9a ba
       -0.0037631441 -0.0031475895 -3.139622e-05 -0.0011802897
0000a0 82 bc 88 3b d0 04 65 3b 02 7a 78 3b 34 1d 86 3b
       0.0041728625 0.0034945495 0.003791452 0.0040928368
0000b0 dd e6 f9 ba d5 e5 3d bb 43 84 9f bb 98 92 63 3b
       -0.0019065995 -0.0028976102 -0.0048680617 0.0034724828
0000c0 18 19 e2 3b 0a bc 6b bc 47 b1 15 3c fa 96 90 3b
       0.006899964 -0.014388094 0.0091365045 0.004412529
0000d0 04 53 05 bc 0d f3 29 3b 5b 13 24 bb 83 de 7f bb
       -0.008137468 0.0025932223 -0.002503595 -0.003904254
0000e0 f3 70 a8 3b 48 e6 e9 bb 18 8b d1 3b 22 43 cb 38
       0.0051404177 -0.0071380474 0.006394755 9.692299e-05
0000f0 94 cd c2 bb ec 73 2a bb 0f 35 22 3a 21 07 a1 bb
       -0.005944917 -0.0026009036 0.0006187716 -0.00491418
000100 e3 94 d9 b9 93 e0 98 3b 95 d9 e9 3b bb 63 3e bc
       -0.00041500395 0.004665443 0.0071365335 -0.011620457
000110 6b 4c 65 3c be 2b 38 3b 90 50 cd 3b 23 c5 1f bc
       0.01399527 0.0028102244 0.0062657073 -0.009751591
000120 eb 01 91 3b 6b 12 6c 3a 30 28 bd 3b 0f 55 ce 39
       0.0044252775 0.000900543 0.005772613 0.00039354755
000130 c5 fa 18 bb 87 8d 1c 3b 00 74 0a 3c 85 9b 56 3b
       -0.002334283 0.0023888068 0.008450508 0.0032746505
000140 f0 cd 2d bb de 10 aa bb fb a4 68 bc 88 2f d5 ba
       -0.0026520453 -0.005189999 -0.014199491 -0.0016264776
000150 f8 72 18 bc 59 3b 36 b9 65 35 5d bb 3f 8c 6a bb
       -0.009304754 -0.00017378981 -0.003375375 -0.003578916
000160 2d 3e 42 3b 1d 24 16 bc e8 af 5a 3b ca 40 6c ba
       0.002963911 -0.0091638835 0.0033369008 -0.000901234
000170 9f 53 4c bb ca 83 14 3c 78 be 18 3b 22 7a e3 ba
       -0.0031177772 0.009064624 0.0023306888 -0.0017355124
000180 03 d3 80 bb c3 5b b2 3b 03 44 24 bc dc 0a 99 bb
       -0.0039314046 0.0054430678 -0.010025981 -0.004670484
000190 0f 0b d2 bb fa e3 96 3b 16 25 c2 bb b1 a7 c6 bb
       -0.0064100097 0.0046048136 -0.005924831 -0.006062471
0001a0 07 33 25 3b 97 43 cb bb e7 ea 4f ba 0d f5 f4 bb
       0.0025207417 -0.0062031257 -0.00079314265 -0.0074755014
0001b0 c2 7d 32 3b eb ce f1 bb 22 2a 6f ba f7 68 7b bb
       0.0027235602 -0.007379403 -0.0009123405 -0.0038362124
0001c0 e8 69 72 bb 15 41 b4 3a df 8f 35 3b c0 b9 88 b9
       -0.0036989395 0.0013752306 0.0027704162 -0.00026078336
0001d0 6b a5 ae 3b 77 23 27 bc 9a fe e3 bb 67 52 05 bb
       0.005329778 -0.010201327 -0.006957841 -0.0020343305
0001e0 20 45 e7 bb ef c8 2c bb 02 1a 38 3a 7d fc 41 3a
       -0.007057801 -0.0026364883 0.00070229184 0.00073999894
0001f0 e1 8c be 3a a9 8b 99 ba 40 2e 08 3b 95 c0 be 3b
       0.0014537835 -0.0011714596 0.002077952 0.0058212974
000200 9b 15 b6 39 8a 2c b6 3b 7e 2c 0b 3c ff f5 42 3c
       0.00034729842 0.0055595087 0.0084944945 0.01189947
000210 48 a3 f2 ba 06 53 22 bc 5d 0c d0 ba 39 fd 80 3b
       -0.0018511796 -0.00990749 -0.0015872825 0.0039364365
000220 c7 89 8a 3b 88 44 5b ba d3 9c 7e 39 b5 b9 14 3c
       0.00422785 -0.0008364399 0.00024281749 0.009077479
000230 41 8e 2f 3b f4 5d 21 3c 84 f8 ac 3b ea ee 62 3c
       0.002678767 0.00984906 0.005278649 0.013850907
000240 ec 24 1e ba 4b 00 1d ba 53 38 0c 3c 22 69 63 ba
       -0.00060327235 -0.00059891184 0.008558351 -0.0008675029
000250 0a 42 89 ba 07 ec 33 bc f0 43 2e 3b 0a d7 79 bc
       -0.0010471952 -0.010981566 0.0026590787 -0.015249023
000260 4a 9a ba 3a 70 a9 9f bb 6f 12 34 bb 4d a0 ee bb
       0.0014236656 -0.0048724934 -0.0027476808 -0.007282293
000270 c0 bb b2 bb 95 c5 86 3b dc dc b1 39 5c 00 bb ba
       -0.0054545105 0.004112909 0.00033924624 -0.0014267075
000280 99 19 9f 3a 29 4c 2b 3c 7e f0 12 bc a8 d8 c9 bb
       0.0012138366 0.01045517 -0.008968471 -0.0061598606
000290 83 50 da ba b2 d0 7a 39 9f 0e 22 3c 8c 55 9d 3b
       -0.0016656074 0.00023919603 0.009891181 0.0048014577
0002a0 35 96 f6 3b 08 f8 ed 3b 36 f3 13 3c a2 19 01 3c
       0.0075252303 0.0072622336 0.009030154 0.0078796465
0002b0 5f 7f 32 ba 71 c6 4a bc fa f7 a7 ba 32 91 99 ba
       -0.0006809141 -0.012376414 -0.0012814992 -0.0011716245
0002c0 7f 2b 8e 3b 92 d4 ca bb ba 03 da bb 86 89 c3 3b
       0.004338681 -0.006189891 -0.0066532763 0.005967322
0002d0 16 86 bc bb 58 f1 0c bb 55 16 5c bb 9a b4 4a bb
       -0.005753289 -0.0021506157 -0.0033582647 -0.00309304
0002e0 4f ae e4 3b 67 73 1a bc 18 be 82 bb aa 94 51 bc
       0.006978787 -0.009426928 -0.003989946 -0.012791792
0002f0 d9 b5 93 3b f9 05 26 3b df e0 c4 bb b2 b3 d7 ba
       0.004507762 0.002533315 -0.006008252 -0.0016456752
000300 4f 8b a3 3a 04 53 8c bb 15 81 65 3b a9 80 91 bb
       0.001247743 -0.004282357 0.0035019566 -0.0044403863
000310 95 84 81 bb 20 54 fb 3b 4f b0 9d 3a 49 d9 0e bc
       -0.0039525726 0.0076699406 0.0012030693 -0.008718797
000320 b8 36 8f bb eb ca 69 39 90 21 2b 3b db 1e 0b bc
       -0.0043705367 0.00022296204 0.0026112534 -0.008491243
000330 5b 73 82 bc fb 3b 80 bb d8 41 4a b8 5d 2b 97 3b
       -0.015924146 -0.0039134 -4.8221875e-05 0.0046133236
000340 14 59 aa 3b 44 b4 bd ba d9 8d b7 3b ff 28 08 3c
       0.005198607 -0.0014473279 0.0056016264 0.0083105555
000350 c5 9e 1c 3c 49 8b 00 bc 78 e1 79 3c f8 60 d8 3b
       0.009559338 -0.007845708 0.01525151 0.0066033565
000360 fc a6 16 bc 20 de 95 3b 69 7c 36 bb f3 e1 80 ba
       -0.009195086 0.0045735985 -0.002784515 -0.0009832963
000370 53 41 2a bc 5a 46 45 b8 65 b7 78 bb 12 c7 1a b9
       -0.010391551 -4.703398e-05 -0.0037951109 -0.00014760744
000380 2e 77 36 b7 f5 0c 17 3c 56 4e a5 3b 72 12 f8 3b
       -1.0875794e-05 0.009219398 0.0050447388 0.007570558
000390 af 9f 8f 3b 53 73 34 39 64 f9 08 bc 31 c8 b3 bb
       0.0043830494 0.000172091 -0.008360241 -0.005486511
0003a0 2f fc 9a 3a b9 df 06 bc 4b 68 a6 3b 17 5c 76 3c
       0.0011824424 -0.008232051 0.0050783507 0.015036604
0003b0 8a 0d 2c ba e3 3f c1 bb 35 94 96 3b 18 53 34 bb
       -0.0006563297 -0.0058975085 0.0045953044 -0.0027515348
0003c0 f3 eb b5 bb fb 81 d2 3b 19 37 c7 bb b8 9c 1d bb
       -0.005551809 0.0064241863 -0.006079566 -0.002404971
0003d0 72 5f 34 3b 55 ab 42 bc 97 e2 4c bb b9 21 a7 3a
       0.002752271 -0.011881669 -0.0031262988 0.0012751139
0003e0 7b 78 76 3a 7b 6c ba 3b d0 f4 90 bb 31 dc 27 3a
       0.0009402108 0.0056892014 -0.004423715 0.00064033555
0003f0 1b 80 d9 bb b7 8d 6a 3c cf b2 98 3b a9 77 b0 bb
       -0.006637586 0.014316014 0.0046599875 -0.0053853584

discrete_action_output_shape f4 [1, 5]
000000 00 00 40 40 00 00 40 40 00 00 00 40 00 00 00 40
       3.0 3.0 2.0 2.0
000010 00 00 00 40
       2.0

network_body._body_endoder.seq_layers.0.bias f4 [256]
000000 00 00 00 00 00 00 00 00 00 00 00 00 00 00 00 00
       0.0 0.0 0.0 0.0
000010 00 00 00 00 00 00 00 00 00 00 00 00 00 00 00 00
       0.0 0.0 0.0 0.0
000020 00 00 00 00 00 00 00 00 00 00 00 00 00 00 00 00
       0.0 0.0 0.0 0.0
000030 00 00 00 00 00 00 00 00 00 00 00 00 00 00 00 00
       0.0 0.0 0.0 0.0
000040 00 00 00 00 00 00 00 00 00 00 00 00 00 00 00 00
       0.0 0.0 0.0 0.0
000050 00 00 00 00 00 00 00 00 00 00 00 00 00 00 00 00
       0.0 0.0 0.0 0.0
000060 00 00 00 00 00 00 00 00 00 00 00 00 00 00 00 00
       0.0 0.0 0.0 0.0
000070 00 00 00 00 00 00 00 00 00 00 00 00 00 00 00 00
       0.0 0.0 0.0 0.0
000080 00 00 00 00 00 00 00 00 00 00 00 00 00 00 00 00
       0.0 0.0 0.0 0.0
000090 00 00 00 00 00 00 00 00 00 00 00 00 00 00 00 00
       0.0 0.0 0.0 0.0
0000a0 00 00 00 00 00 00 00 00 00 00 00 00 00 00 00 00
       0.0 0.0 0.0 0.0
0000b0 00 00 00 00 00 00 00 00 00 00 00 00 00 00 00 00
       0.0 0.0 0.0 0.0
0000c0 00 00 00 00 00 00 00 00 00 00 00 00 00 00 00 00
       0.0 0.0 0.0 0.0
0000d0 00 00 00 00 00 00 00 00 00 00 00 00 00 00 00 00
       0.0 0.0 0.0 0.0
0000e0 00 00 00 00 00 00 00 00 00 00 00 00 00 00 00 00
       0.0 0.0 0.0 0.0
0000f0 00 00 00 00 00 00 00 00 00 00 00 00 00 00 00 00
       0.0 0.0 0.0 0.0
000100 00 00 00 00 00 00 00 00 00 00 00 00 00 00 00 00
       0.0 0.0 0.0 0.0
000110 00 00 00 00 00 00 00 00 00 00 00 00 00 00 00 00
       0.0 0.0 0.0 0.0
000120 00 00 00 00 00 00 00 00 00 00 00 00 00 00 00 00
       0.0 0.0 0.0 0.0
000130 00 00 00 00 00 00 00 00 00 00 00 00 00 00 00 00
       0.0 0.0 0.0 0.0
000140 00 00 00 00 00 00 00 00 00 00 00 00 00 00 00 00
       0.0 0.0 0.0 0.0
000150 00 00 00 00 00 00 00 00 00 00 00 00 00 00 00 00
       0.0 0.0 0.0 0.0
000160 00 00 00 00 00 00 00 00 00 00 00 00 00 00 00 00
       0.0 0.0 0.0 0.0
000170 00 00 00 00 00 00 00 00 00 00 00 00 00 00 00 00
       0.0 0.0 0.0 0.0
000180 00 00 00 00 00 00 00 00 00 00 00 00 00 00 00 00
       0.0 0.0 0.0 0.0
000190 00 00 00 00 00 00 00 00 00 00 00 00 00 00 00 00
       0.0 0.0 0.0 0.0
0001a0 00 00 00 00 00 00 00 00 00 00 00 00 00 00 00 00
       0.0 0.0 0.0 0.0
0001b0 00 00 00 00 00 00 00 00 00 00 00 00 00 00 00 00
       0.0 0.0 0.0 0.0
0001c0 00 00 00 00 00 00 00 00 00 00 00 00 00 00 00 00
       0.0 0.0 0.0 0.0
0001d0 00 00 00 00 00 00 00 00 00 00 00 00 00 00 00 00
       0.0 0.0 0.0 0.0
0001e0 00 00 00 00 00 00 00 00 00 00 00 00 00 00 00 00
       0.0 0.0 0.0 0.0
0001f0 00 00 00 00 00 00 00 00 00 00 00 00 00 00 00 00
       0.0 0.0 0.0 0.0
000200 00 00 00 00 00 00 00 00 00 00 00 00 00 00 00 00
       0.0 0.0 0.0 0.0
000210 00 00 00 00 00 00 00 00 00 00 00 00 00 00 00 00
       0.0 0.0 0.0 0.0
000220 00 00 00 00 00 00 00 00 00 00 00 00 00 00 00 00
       0.0 0.0 0.0 0.0
000230 00 00 00 00 00 00 00 00 00 00 00 00 00 00 00 00
       0.0 0.0 0.0 0.0
000240 00 00 00 00 00 00 00 00 00 00 00 00 00 00 00 00
       0.0 0.0 0.0 0.0
000250 00 00 00 00 00 00 00 00 00 00 00 00 00 00 00 00
       0.0 0.0 0.0 0.0
000260 00 00 00 00 00 00 00 00 00 00 00 00 00 00 00 00
       0.0 0.0 0.0 0.0
000270 00 00 00 00 00 00 00 00 00 00 00 00 00 00 00 00
       0.0 0.0 0.0 0.0
000280 00 00 00 00 00 00 00 00 00 00 00 00 00 00 00 00
       0.0 0.0 0.0 0.0
000290 00 00 00 00 00 00 00 00 00 00 00 00 00 00 00 00
       0.0 0.0 0.0 0.0
0002a0 00 00 00 00 00 00 00 00 00 00 00 00 00 00 00 00
       0.0 0.0 0.0 0.0
0002b0 00 00 00 00 00 00 00 00 00 00 00 00 00 00 00 00
       0.0 0.0 0.0 0.0
0002c0 00 00 00 00 00 00 00 00 00 00 00 00 00 00 00 00
       0.0 0.0 0.0 0.0
0002d0 00 00 00 00 00 00 00 00 00 00 00 00 00 00 00 00
       0.0 0.0 0.0 0.0
0002e0 00 00 00 00 00 00 00 00 00 00 00 00 00 00 00 00
       0.0 0.0 0.0 0.0
0002f0 00 00 00 00 00 00 00 00 00 00 00 00 00 00 00 00
       0.0 0.0 0.0 0.0
000300 00 00 00 00 00 00 00 00 00 00 00 00 00 00 00 00
       0.0 0.0 0.0 0.0
000310 00 00 00 00 00 00 00 00 00 00 00 00 00 00 00 00
       0.0 0.0 0.0 0.0
000320 00 00 00 00 00 00 00 00 00 00 00 00 00 00 00 00
       0.0 0.0 0.0 0.0
000330 00 00 00 00 00 00 00 00 00 00 00 00 00 00 00 00
       0.0 0.0 0.0 0.0
000340 00 00 00 00 00 00 00 00 00 00 00 00 00 00 00 00
       0.0 0.0 0.0 0.0
000350 00 00 00 00 00 00 00 00 00 00 00 00 00 00 00 00
       0.0 0.0 0.0 0.0
000360 00 00 00 00 00 00 00 00 00 00 00 00 00 00 00 00
       0.0 0.0 0.0 0.0
000370 00 00 00 00 00 00 00 00 00 00 00 00 00 00 00 00
       0.0 0.0 0.0 0.0
000380 00 00 00 00 00 00 00 00 00 00 00 00 00 00 00 00
       0.0 0.0 0.0 0.0
000390 00 00 00 00 00 00 00 00 00 00 00 00 00 00 00 00
       0.0 0.0 0.0 0.0
0003a0 00 00 00 00 00 00 00 00 00 00 00 00 00 00 00 00
       0.0 0.0 0.0 0.0
0003b0 00 00 00 00 00 00 00 00 00 00 00 00 00 00 00 00
       0.0 0.0 0.0 0.0
0003c0 00 00 00 00 00 00 00 00 00 00 00 00 00 00 00 00
       0.0 0.0 0.0 0.0
0003d0 00 00 00 00 00 00 00 00 00 00 00 00 00 00 00 00
       0.0 0.0 0.0 0.0
0003e0 00 00 00 00 00 00 00 00 00 00 00 00 00 00 00 00
       0.0 0.0 0.0 0.0
0003f0 00 00 00 00 00 00 00 00 00 00 00 00 00 00 00 00
       0.0 0.0 0.0 0.0

network_body._body_endoder.seq_layers.0.weight f4 [256, 366]
000000 32 af 44 3d 82 0a 80 3d 97 31 f4 bc d7 00 9d bc
       0.04801864 0.06252004 -0.029808803 -0.01916544
000010 d0 db 88 bd a6 d5 85 bd 92 0d 79 bd 35 aa 15 3d
       -0.06682551 -0.06534891 -0.060803957 0.036539275
000020 7f b2 69 bd 87 e1 8c 3b 20 72 a1 3c 87 e2 a8 bc
       -0.057054993 0.004299346 0.01970774 -0.02061583
000030 5b f7 86 bd 9b ec c0 3d fa 6c ab bc fe 94 02 3e
       -0.06590148 0.09420129 -0.020925988 0.12752149
000040 88 e8 8b 3d ee 94 8c bd 10 85 3a 3d bb 38 3b bd
       0.06831461 -0.068643436 0.045537055 -0.0457084
000050 ec 7a 40 bd 31 6f 5c 3d 1a 45 cd 3c 8d 2a a0 ba
       -0.046992227 0.053816978 0.025057364 -0.0012219712
000060 05 c0 16 be 63 e5 0e 3d dc b2 d0 bd 4e 16 8b 3d
       -0.14721687 0.03488673 -0.10190365 0.06791364
000070 98 43 35 bd 52 13 d0 bc d7 6e c5 bc 5e cd aa 3d
       -0.044253916 -0.025399838 -0.024100704 0.08339952
000080 35 3e 6e bb 93 6d ff bc ed 63 7b bd d0 2a db bd
       -0.0036352996 -0.031180179 -0.061374594 -0.10701525
000090 21 cc 5a bd e7 c6 4c bd 8e 64 79 3c 1f 8a 1d 3d
       -0.05341733 -0.049994376 0.015221728 0.0384618
0000a0 a8 5b a0 bc 59 9c c8 bc 13 71 ba 3d af 50 24 3d
       -0.019574955 -0.024488615 0.091035984 0.04011601
0000b0 9b b9 b4 bc 94 d2 84 3b a6 f9 af 3d 0c cb 14 bd
       -0.02206116 0.004053423 0.085925385 -0.036326453
0000c0 fa f9 c0 3d 07 42 dc 39 96 aa 05 3d 79 09 c9 bc
       0.09422679 0.00042010864 0.032633387 -0.02454065
0000d0 8e 3f 4d bd c6 7d 9d 3d 52 f2 3c 3d d3 97 1d 3d
       -0.05010944 0.07690005 0.046129532 0.03847487
0000e0 b8 1c 55 3d d1 9f f0 3b f4 34 c0 bd 6d 25 8e 3c
       0.05202934 0.0073432704 -0.093851 0.01735183
0000f0 88 07 60 bd a7 3c 01 bb d4 e6 a7 3a ee 86 27 bd
       -0.054694682 -0.001971999 0.0012809881 -0.040900163
000100 a7 05 be bc 45 58 04 3c 3e b0 76 bb 9f 2b 6f 3c
       -0.023196055 0.008077686 -0.003764167 0.014597802
000110 93 b5 1e 3d 7b 17 de bc 8f 88 97 3c fe 26 05 3d
       0.03874738 -0.027110806 0.018497733 0.03250789
000120 45 be 0c bd fd 4f 4c bd a2 84 be 3c b4 54 99 3d
       -0.034361143 -0.04988097 0.023256604 0.07486859
000130 67 dc 67 3d 08 54 2f 3c df 8d 86 3d 5c 25 be 3d
       0.056606676 0.010701187 0.065700285 0.092844695
000140 89 6a 40 3b 23 6d dd 3d 45 ec dc bd 6e 51 ab 3d
       0.0029360375 0.10811832 -0.10787252 0.08365141
000150 6a c4 4f bd 93 46 90 3c c7 49 43 bd 85 80 87 bb
       -0.050724424 0.017611777 -0.04767778 -0.004135194
000160 a1 42 d4 3b 20 1f d6 3c a2 da 03 3d cd 12 ad bd
       0.0064776693 0.026137888 0.032190926 -0.084508516
000170 79 de 94 3c 10 4b b1 3b af 14 8c 3d 60 69 9c bc
       0.01817249 0.0054105595 0.068398826 -0.019093215
000180 f2 79 2e 3d 20 14 2e 3c 6e c2 8c bb df ea 24 bd
       0.042596765 0.010624915 -0.0042956388 -0.040263053
000190 8c 2f 99 3b a2 9d 63 3c d3 36 ac 3d da b6 f4 3d
       0.0046748575 0.013892563 0.084088944 0.11948939
0001a0 37 46 93 3c b9 5c 9c 3b 2c a8 3d bd 6a 64 5b bc
       0.017977817 0.0047717956 -0.04630296 -0.01339064
0001b0 7e 7c db bc 93 ad 72 bb 0d 18 11 bd 29 bc bd bc
       -0.026792761 -0.0037029728 -0.035423327 -0.02316101
0001c0 da da 99 bd 69 a1 d3 3a aa 97 8f 3d dc c2 5b 3c
       -0.07512446 0.0016146126 0.070113495 0.013413157
0001d0 ac 69 44 3a 84 22 eb 3c 7a 5e 43 3d c5 5f bc bd
       0.0007492553 0.028702982 0.04769752 -0.09197954
0001e0 9c 5b 6a 3d 39 a9 86 bd bc 2a 30 3d 39 27 83 3d
       0.05721627 -0.065752454 0.043009505 0.064039655
0001f0 ce 79 8b bc 60 04 6c bd d5 50 8a bd f7 fb 95 bc
       -0.017025854 -0.05762136 -0.06753699 -0.018308623
000200 e5 17 19 bd a9 06 89 3d 32 9d e7 ba 9f 22 20 3d
       -0.037376303 0.066907234 -0.0017670749 0.039095517
000210 e1 1a d4 bc 0b fa 81 3d cc 53 47 3c 06 23 ab 3c
       -0.025891723 0.0634652 0.012165975 0.020890724
000220 e3 85 e9 bc 62 2c fe 3c 3f 94 1d 3d 28 ea c3 3c
       -0.028506225 0.031027023 0.038471457 0.023915365
000230 9e ac 8a 3c 5d 8a 92 bc a9 ca 2f bc f1 14 56 3c
       0.016928013 -0.017888242 -0.01072947 0.013066516
000240 a0 81 44 3c a8 bc 82 3c b7 6b f9 bc 23 ab cf bd
       0.011993796 0.015959099 -0.03044687 -0.101400636
000250 c7 f4 30 3c 81 16 1d bc 15 c4 a0 bc ee 80 5e 3d
       0.010800547 -0.009587885 -0.01962475 0.054322176
000260 0c 9c 3a bc 41 8e 88 3d f1 27 d6 bb b3 44 69 3c
       -0.011389744 0.06667758 -0.006535523 0.014237571
000270 c5 5b bd 3d 18 cb a3 bd e3 3b 53 3d 8a 1e 50 bd
       0.09246019 -0.079977214 0.051570784 -0.050810374
000280 e9 a4 51 bb b0 89 75 bd 0d 77 58 bc 04 15 2d 3d
       -0.0031989163 -0.059945762 -0.013211978 0.04225637
000290 28 bf 94 3c 34 59 25 3e 29 d3 22 3d 64 45 0b bd
       0.018157557 0.1614731 0.03975216 -0.034001723
0002a0 6b 6f c0 bc a0 57 11 bc f1 a5 37 3d 86 31 64 3c
       -0.023490628 -0.008870989 0.04483599 0.013927823
0002b0 ea 43 f6 3c 00 d4 9c 3c c0 cd 09 3e c5 82 c1 bd
       0.03006168 0.019144058 0.13457394 -0.094487704
0002c0 dc 57 98 3c df cc a1 bc 16 0b 72 3d 78 c0 30 3d
       0.018596582 -0.01975101 0.059092604 0.043152303
0002d0 6b 5d e4 3d f3 52 40 bc 8e d4 2c 3a 77 8a b1 bd
       0.111506306 -0.011738527 0.00065929524 -0.08668988
0002e0 41 25 6a bd 9e 83 c1 bc ea 20 50 bd 76 7f 69 bb
       -0.057164434 -0.02362233 -0.05081264 -0.003562895
0002f0 1f a6 c3 bc f9 2e fe 3c 5f 11 0d 3e 24 f2 04 3d
       -0.023882924 0.031028258 0.13776158 0.032457486
000300 56 4c 7e 3d b6 a4 dc 3c 3e c7 6e bd fc 8f 29 3d
       0.06208452 0.026934009 -0.05829548 0.04139708
000310 df 57 0e ba 1c 5b cb bd 74 57 50 3c cb 64 f3 bc
       -0.0005429964 -0.09929487 0.012716163 -0.029711148
000320 a3 ac ae bc ed 44 ae bc 45 18 b1 3d 70 e4 97 bb
       -0.021322554 -0.0212731 0.08647207 -0.004635386
000330 dd 62 20 bd cf 1a ec 3c 0b 57 a7 3c a2 03 44 3d
       -0.039156783 0.028821377 0.020427248 0.047855027
000340 d4 d8 35 3d 84 1a e8 3c 66 85 39 3d 05 1e 67 3c
       0.044396237 0.028332956 0.045293234 0.014106278
000350 35 95 9c 3c 00 0b ab 3c 20 7c 57 3d 83 dc 41 bd
       0.019114116 0.020879269 0.05260861 -0.047329437
000360 9c 05 2e bd bf 72 56 bc 0d b8 dc bc fc f5 7f bd
       -0.04248582 -0.013088881 -0.026943231 -0.06249045
000370 27 cb 7c 3d 81 a0 5f bd fc 9b 44 bd 1b 70 79 3c
       0.06171718 -0.054596428 -0.04800032 0.015224482
000380 f0 a7 5e bd 5e c5 6e 3d 2d 02 64 bc 10 a7 36 bd
       -0.054359376 0.058293693 -0.013916534 -0.044592917
000390 84 40 27 3d 31 55 10 bd 24 43 30 bd 5d d2 dc bd
       0.04083301 -0.035237495 -0.04303278 -0.10782311
0003a0 9a a1 26 3d c7 07 42 3d a2 08 c9 3c ea d1 f1 bc
       0.04068146 0.0473707 0.02454025 -0.02951904
0003b0 ee a8 74 bd cb 24 4d 3d f0 a9 ee 3b dd 0b 63 bd
       -0.059731416 0.050083917 0.0072834417 -0.055431236
0003c0 68 79 1f bd 4f 8d 51 3d aa 31 18 3c a5 e5 a9 3d
       -0.03893414 0.051160153 0.009289185 0.08295754
0003d0 20 bf ad bb d8 21 63 bd 5e 57 89 3d 59 5e 39 bc
       -0.005302325 -0.055452198 0.06706117 -0.011313998
0003e0 f8 07 12 3e 18 30 ec 3b 20 de bf bd a7 72 9c 3d
       0.14260852 0.0072078817 -0.09368539 0.07639056
0003f0 5e 09 aa bd f0 cb 48 3d 8f b8 05 3d 43 95 0b bd
       -0.08302568 0.049022615 0.032646712 -0.034077894
